day3/checkpoint.pt (torch, 942423 bytes, 6 tensors)

fc1.weight f4 [256, 784]
0.015397567 0.029570904 -0.015581591 -0.017278587 0.009364903 0.0071466453 0.030799497 -0.020336416
0.007377036 0.016627524 -0.022448778 0.00071910024 0.018175095 -0.015114892 0.0055335425 -0.033154037
-0.028383797 -0.011292117 -0.0042867996 0.009579368 0.008742258 0.009531982 0.025569461 -0.024485767
0.020380054 -0.025303274 -0.005881395 -0.013952093 -0.032986533 0.0057471655 -0.020792633 -0.0074029434
-0.010522783 0.0036687814 -0.014132535 0.021754429 0.030938338 -0.008983165 0.0054850383 0.016670998
-0.009132718 -0.020371445 -0.015128685 -0.019470666 0.005555401 0.0078285355 0.0047193137 -0.029155947
0.0114099765 -0.043351125 -0.0125478 0.029120196 0.025526881 -0.021552969 -0.033808805 0.029667359
-0.017215682 -0.018085271 0.033105474 0.051741343 0.012832607 -0.02783151 0.049905427 0.04645956
0.010917278 -0.020181553 -0.053020276 -0.06680037 -0.098749526 -0.09057533 -0.093698844 -0.0041791894
-0.0073265666 0.0038384912 -0.10190771 -0.024351798 -0.0307981 -0.05791228 -0.034140836 -0.032555476
0.014390723 -0.020091755 0.0028328411 0.007672742 0.011099972 0.03312016 -0.00080094486 0.02341897
0.015806707 -0.027026134 -0.06807519 -0.05254326 -0.005663732 -0.011440381 -0.07143357 -0.09320603
0.031771492 0.049356088 0.0035028781 -0.07623502 -0.043674126 -0.055737674 -0.04154022 0.0019666909
-0.027845133 -0.063447796 -0.103328966 -0.1114226 -0.087524824 0.11874316 0.12577105 0.026469931
0.0064964853 -0.011540389 0.018426295 -0.015662728 -0.049374096 -0.06338912 -0.054740924 -0.03607406
-0.11363627 -0.13736592 -0.21828005 0.005336375 0.06753012 0.057662386 0.07301287 0.08067877
0.08939587 0.052072626 -0.04972795 -0.1119835 -0.18325408 -0.21315733 -0.102538005 -0.026096731
0.10357415 0.16036937 0.12890117 -0.026424397 -0.022564638 0.013861418 0.00688006 0.032983366
-0.021780567 -0.10717871 -0.10130274 -0.069421716 -0.09479893 -0.1363985 -0.103484936 -0.046727635
0.03336157 0.0479967 0.0019682986 -0.110024855 -0.20850632 -0.1736237 -0.16379221 -0.12114929
-0.033678744 0.044938643 0.07458647 0.106119014 0.14126807 0.20598245 0.07896447 0.08947194
0.03200871 -0.027990934 0.17429054 -0.08335247 -0.17102161 0.01558091 0.000753678 -0.05206505
-0.05304408 -0.17817986 -0.07194938 -0.04012695 0.020376729 0.033010658 -0.02994656 -0.08747604
-0.15538938 -0.0917284 -0.049966842 0.043021403 -0.017519586 0.042087413 0.035185628 0.03290834
0.09193394 0.20703302 0.19096349 0.19882442 0.03347466 0.05866172 0.102923155 -0.12966247
-0.24864301 -0.011332358 0.10204374 0.08146607 -0.04231296 0.054608066 0.117756516 0.07922072
0.13876659 0.08229067 -0.016686317 -0.02042694 0.010192386 0.051046133 0.07592637 0.1255102
0.08060997 0.034234725 -0.020572415 -0.019265622 -0.039949883 0.04138973 0.12728056 0.13718079
-0.009108004 0.044186298 0.17329092 -0.09791154 -0.20274018 0.0020971533 0.099926434 0.067252696
0.08151837 0.018876089 0.052349854 0.12346311 0.1592347 0.116348185 0.11077986 0.0563113
0.062060125 0.032789376 0.07844585 0.06629798 0.06487686 0.035465162 -0.02461758 -0.021850836
0.07952048 0.046190042 0.030115016 0.049822107 0.084071815 0.086677656 0.00011445882 -0.11720202
00000000: 1446 7c3c ae3e f23c ee49 7fbc d38b 8dbc
00000010: 406f 193c 682e ea3b 3a4f fc3c 8e98 a6bc
00000020: 10bb f13b 7236 883c 80e6 b7bc 0082 3c3a
00000030: f0e3 943c 74a4 77bc b852 b53b 87cc 07bd
00000040: 2385 e8bc 9202 39bc 4878 8cbb c8f2 1c3c
00000050: b03b 0f3c 082c 1c3c 0c77 d13c 6096 c8bc
00000060: 12f4 a63c d048 cfbc b8b8 c0bb 5297 64bc
00000070: e31c 07bd b852 bc3b 5055 aabc 6494 f2bb
00000080: c067 2cbc f06f 703b 268c 67bc 5836 b23c
00000090: 6672 fd3c 202e 13bc d6bb b33b 9e91 883c
000000a0: 65a1 15bc 04e2 a6bc 4ede 77bc f280 9fbc
000000b0: 150a b63b 4243 003c 79a4 9a3b 74d8 eebc
000000c0: e9f0 3a3c f390 31bd 4a95 4dbc 7a8d ee3c
000000d0: c01d d13c da8f b0bc 1a7b 0abd f608 f33c
000000e0: e707 8dbc 9027 94bc 9b99 073d bbee 533d
000000f0: db3f 523c e8fe e3bc a269 4c3d 614c 3e3d
00000100: 62de 323c c953 a5bc ca2b 59bd a2ce 88bd
00000110: 313d cabd 8f7f b9bd 2ee5 bfbd 95f1 88bb
00000120: b213 f0bb 328f 7b3b fdb4 d0bd 6c7d c7bc
00000130: 4c4c fcbc 6d35 6dbd 43d7 0bbd e458 05bd
00000140: 11c7 6b3c 7797 a4bc 30a7 393b a06b fb3b
00000150: a8dc 353c 01a9 073d 80f6 51ba 24d9 bf3c
00000160: 117d 813c e965 ddbc 016b 8bbd 9a37 57bd
00000170: d496 b9bb 7070 3bbc c34b 92bd cee2 bebd
00000180: d322 023d 9c29 4a3d 8b90 653b 1b21 9cbd
00000190: a4e3 32bd 304d 64bd 1426 2abd 99e3 003b
000001a0: 7a1b e4bc ebf0 81bd 239e d3bd 8831 e4bd
000001b0: 3740 b3bd 9d2f f33d 20ca 003e 78d7 d83c
000001c0: 78e0 d43b e613 3dbc bef2 963c 1f4f 80bc
000001d0: 7e3c 4abd 28d2 81bd 0538 60bd 65c2 13bd
000001e0: 22ba e8bd a7a9 0cbe ce84 5fbe c2dc ae3b
000001f0: 3b4d 8a3d 652f 6c3d c687 953d e93a a53d
00000200: 2f15 b73d 1b4a 553d 89af 4bbd 9b57 e5bd
00000210: f5a6 3bbe ea45 5abe 72ff d1bd d0c8 d5bc
00000220: af1e d43d de37 243e abfe 033e fa77 d8bc
00000230: 7ad9 b8bc 001b 633c 2072 e13b 9119 073d
00000240: 296d b2bc 8380 dbbd d077 cfbd f92c 8ebd
00000250: f125 c2bd 0cac 0bbe e9ef d3bd 7a65 3fbd
00000260: 24a6 083d 3098 443d 92fe 003b b654 e1bd
00000270: ae82 55be 69ca 31be 25b9 27be 1e1d f8bd
00000280: b9f2 09bd 9511 383d cbc0 983d ed54 d93d
00000290: 94a8 103e 10ed 523e 20b8 a13d 113d b73d
000002a0: 911b 033d 3e4d e5bc 3879 323e b3b4 aabd
000002b0: 4a20 2fbe 1347 7f3c 7992 453a 2942 55bd
000002c0: c044 59bd c874 36be 325a 93bd 285c 24bd
000002d0: 19ed a63c 2f36 073d 7d52 f5bc a326 b3bd
000002e0: 651e 1fbe 19dc bbbd 08aa 4cbd 3637 303d
000002f0: 3c85 8fbc da63 2c3d ce1e 103d e5ca 063d
00000300: dd47 bc3d 7700 543e ef8b 433e a198 4b3e
00000310: ba1c 093d 4647 703d 60c9 d23d 3dc6 04be
00000320: 469c 7ebe 5bab 39bc 4ffc d03d afd7 a63d
00000330: 5b50 2dbd b5ac 5f3d 542a f13d 793e a23d
00000340: d418 0e3e 0388 a83d beb1 88bc 6656 a7bc
00000350: f7fd 263c c015 513d 497f 9b3d bf85 003e
00000360: d716 a53d b639 0c3d 7b87 a8bc f0d2 9dbc
00000370: 7da2 23bd 4788 293d d655 023e 1f79 0c3e
00000380: bd39 15bc b1fc 343d 2d73 313e d885 c8bd
00000390: 1f9b 4fbe 6570 093b 3ba6 cc3d c8bb 893d
000003a0: 1af3 a63d 07a2 9a3c cd6c 563d 3ada fc3d
000003b0: 6c0e 233e f547 ee3d 8de0 e23d ada6 663d
000003c0: c232 7e3d 274e 063d 38a8 a03d 3cc7 873d
000003d0: 29de 843d eb43 113d cfaa c9bc 8600 b3bc
000003e0: a2db a23d c531 3d3d c4b3 f63c 4412 4c3d
000003f0: d82d ac3d 0e84 b13d 9c09 f038 9d07 f0bd

fc1.bias f4 [256]
0.14356445 -0.081629515 0.08286035 0.050134063 -0.015539254 0.056613285 0.019484557 0.045917362
-0.08679261 0.044416443 0.08570581 -0.06600714 0.03409879 -0.0034282948 -0.06602841 0.0034699577
0.07520186 0.0041581737 -0.056400944 -0.10362763 -0.0019090197 0.011858155 0.11691574 -0.056901477
-0.048879363 -0.10892018 -0.105744764 -0.12968187 0.1226116 -0.014879311 0.107625104 0.009141432
-0.11263207 -0.025675606 -0.04688238 -0.04873568 0.022744713 0.017868435 0.046974503 0.022151213
0.07134489 -0.07382755 -0.022345467 -0.09108881 -0.048530336 -0.036583874 -0.010368992 0.0075534033
0.10236313 -0.11484826 -0.015195152 0.010204582 0.14512627 -0.000947628 0.10785022 -0.054875754
0.033321977 -0.01345192 -0.15435489 0.009436272 0.051071703 0.025672207 0.014696721 -0.024232075
-0.07461346 -0.11855137 -0.05190895 0.07095351 0.06645974 -0.04633251 -0.091124095 0.016722133
0.10865787 0.021163628 -0.046468496 -0.013049948 0.112331755 -0.030087385 -0.1888959 0.03900168
0.055056103 0.023729766 -0.17019369 -0.013199906 -0.061035335 0.07286487 -0.13334261 0.1408417
-0.05341071 -0.022012228 -0.059586067 0.10417348 -0.0901336 0.024236495 0.1124238 -0.05559986
0.08653373 0.008250063 0.008154436 -0.1403598 0.0025883673 -0.10699515 0.036617644 -0.06877897
0.05995815 0.18245162 0.045430418 -0.026824007 0.070181124 -0.07156189 -0.14870028 -0.089370616
0.11133417 -0.095385924 0.002707502 0.020471161 0.04524464 -0.038941152 0.057125006 -0.06094503
-0.035781723 0.22370392 0.12411147 -0.05866452 0.098541304 0.06266141 0.0342473 -0.01400152
-0.099377 0.09028401 0.03341954 -0.07483615 0.07047495 -0.14312457 -0.0942046 0.12198928
-0.08122118 -0.034673262 0.008410057 0.07480657 0.04993262 0.009252351 -0.023281304 -0.017636556
0.045140203 -0.07621413 -0.14705598 -0.111592695 -0.072466165 0.017555458 0.18492751 0.034390893
0.09881711 0.016490065 -0.081174664 0.083517134 -0.0007668084 -0.0060334406 0.008327901 0.09250802
-0.045592975 -0.0054094684 -0.0341913 0.110046014 0.019209972 -0.06938224 -0.068414725 -0.13639161
-0.081471786 -0.050136287 0.009856444 0.03133379 -0.10814743 0.04554793 0.016450752 -0.082002126
-0.063536435 0.077903 -0.06307297 0.01824774 0.038258664 -0.045554254 -0.12246642 0.06663663
-0.08139273 0.00422182 -0.051630333 0.022678908 -0.008287207 -0.055657055 0.032238133 -0.11909086
0.0053567947 -0.13280019 -0.060406264 -0.017138144 -0.008131283 0.08424873 -0.120807186 0.030563004
0.016303446 -0.02889059 -0.07679411 0.011307176 0.045804627 0.07300189 0.07762646 0.03434413
0.007276176 -0.02375249 0.1853464 0.034932807 0.03356599 -0.054133855 0.059440456 0.012185951
0.0063531348 0.10483508 0.061198343 -0.02184315 -0.09967431 -0.0854355 0.054728437 0.14415088
-0.09280416 -0.023610584 0.02954371 0.08492439 0.050554648 0.15122253 -0.1114232 0.050395995
0.04592551 0.054064397 0.015955364 -0.17413591 -0.0023787566 -0.062734626 -0.0077330675 0.08991977
0.059096586 -0.024794009 0.028268628 -0.063225895 -0.02477465 -0.046750713 -0.056772098 -0.075717695
0.003210049 0.017461378 -0.06525567 -0.022034103 0.109329805 0.042438705 -0.0993529 -0.07445095
00000000: 8f02 133e 602d a7bd b0b2 a93d 6059 4d3d
00000010: 5b98 7ebc 55e3 673d 149e 9f3c d813 3c3d
00000020: 53c0 b1bd 04ee 353d 8786 af3d c02e 87bd
00000030: 2cab 0b3d 3ead 60bb e739 87bd 3b68 633b
00000040: 6f03 9a3d 4a41 883b ad04 67bd b93a d4bd
00000050: 1238 faba b548 423c 8571 ef3d 8611 69bd
00000060: ba35 48bd 8b11 dfbd b690 d8bd 53cb 04be
00000070: ca1b fb3d 5bc8 73bc 8d6a dc3d f2c5 153c
00000080: a5ab e6bd a655 d2bc bd07 40bd 109f 47bd
00000090: 1f53 ba3c d360 923c 5668 403d 7676 b53c
000000a0: 451d 923d e632 97bd d70d b7bc c58c babd
000000b0: bfc7 46bd f9d8 15bd b4e2 29bc 8a82 f73b
000000c0: c3a3 d13d 9135 ebbd 16f5 78bc 1e31 273c
000000d0: fb9b 143e 3d6a 78ba 93e0 dc3d 66c5 60bd
000000e0: a07c 083d 7165 5cbc 350f 1ebe 989a 1a3c
000000f0: 9030 513d 854e d23c 84ca 703c 5882 c6bc
00000100: f1ce 98bd 10cb f2bd 7b9e 54bd 1350 913d
00000110: 0b1c 883d 28c7 3dbd 459f babd dbfc 883c
00000120: 0488 de3d 585f ad3c c055 3ebd 73cf 55bc
00000130: 310e e63d d279 f6bc ed6d 41be 3ac0 1f3d
00000140: 8282 613d ed64 c23c 4147 2ebe 6b44 58bc
00000150: 3000 7abd 2d3a 953d f78a 08be ce38 103e
00000160: 30c5 5abd fd52 b4bc 8510 74bd e858 d53d
00000170: f797 b8bd 9d8b c63c 733e e63d aebc 63bd
00000180: 9938 b13d 462b 073c 2f9a 053c 7bba 0fbe
00000190: 99a1 293b 4620 dbbd 62fc 153d fddb 8cbd
000001a0: ad96 753d 99d4 3a3e 3f15 3a3d 05be dbbc
000001b0: 1fbb 8f3d 0a8f 92bd e344 18be f107 b7bd
000001c0: 2b03 e43d b259 c3bd 5970 313b 23b3 a73c
000001d0: 7252 393d c280 1fbd e9fb 693d 7fa1 79bd
000001e0: db8f 12bd a412 653e 282e fe3d 354a 70bd
000001f0: 06d0 c93d a054 803d e646 0c3d a266 65bc
00000200: 2b86 cbbd d3e6 b83d ede2 083d b243 99bd
00000210: 2c55 903d 3f8f 12be 57ee c0bd 84d5 f93d
00000220: 4a57 a6bd 8d05 0ebd 56ca 093c 3034 993d
00000230: 2686 4c3d 2c97 173c 6fb8 bebc 8a7a 90bc
00000240: efe4 383d 2716 9cbd d895 16be b68a e4bd
00000250: 2469 94bd 77d0 8f3c a35d 3d3e 77dd 0c3d
00000260: a060 ca3d 2c16 873c e73e a6bd 080b ab3d
00000270: a403 49ba 2bb4 c5bb c071 083c d874 bd3d
00000280: b3bf 3abd e941 b1bb 2d0c 0cbd ce5f e13d
00000290: 3b5e 9d3c 4718 8ebd 051d 8cbd 3eaa 0bbe
000002a0: aeda a6bd b55b 4dbd ec7c 213c dc57 003d
000002b0: 667c ddbd 7790 3a3d bac3 863c bbf0 a7bd
000002c0: 641f 82bd 9c8b 9f3d 672c 81bd 497c 953c
000002d0: 1eb5 1c3d 1997 3abd adcf fabd c978 883d
000002e0: 3bb1 a6bd 3157 8a3b 547a 53bd 1ec9 b93c
000002f0: 11c7 07bc a7f8 63bd 220c 043d e9e5 f3bd
00000300: 0d88 af3b c6fc 07be 8f6c 77bd 4b65 8cbc
00000310: 1339 05bc 998a ac3d c269 f7bd 445f fa3c
00000320: ce8e 853c f5ab ecbc 3b46 9dbd bc41 393c
00000330: a29d 3b3d 0482 953d 9ffa 9e3d 6eac 0c3d
00000340: fd6c ee3b 9594 c2bc 72cb 3d3e b415 0f3d
00000350: 7e7c 093d 76bb 5dbd d677 733d 95a7 473c
00000360: f52d d03b c6b3 d63d 1dab 7a3d 68f0 b2bc
00000370: 0b22 ccbd cff8 aebd ed2a 603d 4a9c 133e
00000380: 1c10 bebd fc6a c1bc a705 f23c d7ec ad3d
00000390: 6412 4f3d 14da 1a3e d931 e4bd 086c 4e3d
000003a0: 631c 3c3d a172 5d3d d3b4 823c af50 32be
000003b0: eae4 1bbb 037b 80bd ac65 fdbb db27 b83d
000003c0: 430f 723d ce1c cbbc 9c93 e73c 947c 81bd
000003d0: 35f4 cabc ad7d 3fbd dc89 68bd e111 9bbd
000003e0: af5f 523b 2a0b 8f3c c4a4 85bd dd80 b4bc
000003f0: 4ee8 df3d 35d4 2d3d 8979 cbbd bd79 98bd

fc2.weight f4 [128, 256]
0.037201744 -0.024284359 0.0005888923 -0.015443768 0.13404386 0.042926975 0.014149054 -0.0062590917
0.23002385 0.015214401 0.13255161 -0.18019629 0.051589128 0.0030264128 -0.07285004 -0.25108373
0.022368383 -0.02342018 -0.12779264 -1.2523869e-06 -0.049558245 0.24901779 0.0578416 -0.06338592
-0.004903114 -0.15432781 -0.14133914 -0.23696361 0.19713743 -0.039324433 0.12284164 -0.11698769
-0.006167685 0.0058480673 0.04502635 -0.041832745 -0.069526374 0.12045049 0.09750484 -0.043463204
0.04692943 0.052723084 0.19155805 -0.048657265 -0.08962944 0.11754218 -0.2124559 -0.0582075
-0.059068862 -0.113072135 -0.16712664 -0.035929132 0.25729194 0.17695005 0.1396216 -0.0049454127
-0.0052235606 0.04413394 -0.10508795 0.04031969 0.0809174 -0.009822717 -0.023948375 -0.022538114
0.00916091 -0.08078979 0.01663287 0.016522413 -0.027061315 -0.05384971 -0.023615882 0.031439405
-0.004416031 -0.045189146 -0.03281862 0.020584473 0.035099477 0.051837567 -0.021560406 -0.105470724
0.23901074 0.026651502 -0.044886343 -0.21053861 -0.027250139 -0.11968339 0.12998195 0.119721316
0.09415475 -0.06764024 -0.063688286 0.10165133 -0.08194601 0.19028261 0.022222029 -0.21429375
0.07762629 0.027441695 0.0912908 -0.055506088 -0.060921688 -0.19859867 -0.16925956 -0.01769298
-0.07012887 0.086243115 0.04963204 -0.014459065 0.027934475 0.22099453 -0.046958968 0.041166585
-0.08648926 0.18996237 0.045864493 0.014233667 -0.2405538 0.052595615 0.09953209 0.098306715
0.03216301 0.08634583 -0.027406871 -0.029046882 0.005949348 -0.093823016 0.02181088 0.026991585
0.08723661 0.17581086 0.06446039 -0.2007025 0.028099822 -0.040487204 0.010747514 0.2136493
-0.03051528 -0.082334705 0.042060975 0.04401936 0.07316535 -0.0005687704 -0.0900233 -0.09514016
0.11503924 -0.052951187 -0.25305706 0.022550741 -0.03971457 0.10371 0.036948975 -0.010593452
0.09409935 0.020695582 0.061298028 0.012291755 0.025925549 0.074996926 0.014225296 0.037517972
0.07643637 0.005929465 0.0485001 0.056576632 0.019876195 -0.08270026 -0.032315962 0.11119445
-0.1298462 0.035944793 -0.006300437 0.012350939 0.1857207 -0.08631066 -0.035674747 0.051396072
-0.041020606 -0.03770568 -0.070745885 0.02476268 0.0069268243 -0.012068472 -0.028413502 0.10388951
0.004758882 -0.01615026 0.09390158 0.061860513 0.005075238 0.03618063 0.065913364 0.07341236
0.111264974 0.121012576 0.102315746 0.0075433864 -0.0026355258 0.0025828145 -0.12334652 0.10755256
0.20021933 -0.04557987 -0.0020956334 -0.044869434 -0.0035086782 0.27816054 -0.03667808 0.041672204
-0.0013662053 -0.19707756 0.18653265 0.12006147 0.070161074 0.01198779 0.1675974 -0.11145323
-0.00070354796 0.04997016 -0.014958527 0.107483044 -0.0028310122 -0.1987531 0.0009323155 0.07308299
-0.07713334 0.03187621 -0.093793444 0.03818497 -0.07979375 0.23900634 -0.16300383 0.030081518
-0.008821825 0.14017937 -0.035280548 -0.07507207 0.19623269 -0.00016993811 -0.11264664 -0.07384705
0.045014378 0.04174658 0.15418012 0.1916584 -0.055781446 -0.012849697 0.054587413 -0.042360667
0.058320574 0.2770121 -0.1370032 0.004033286 0.056074087 -0.10051091 -0.021194676 0.056081537
00000000: db60 183d feef c6bc e55f 1a3a dc07 7dbc
00000010: cb42 093e 32d4 2f3d 6fd1 673c 1119 cdbb
00000020: 5f8b 6b3e d345 793c 9cbb 073e 6085 38be
00000030: 1f4f 533d c856 463b 6732 95bd 0c8e 80be
00000040: e63d b73c addb bfbc 13dc 02be b017 a8b5
00000050: 96fd 4abd 85fe 7e3e 50eb 6c3d 7ad0 81bd
00000060: 4daa a0bb 1c08 1ebe 35bb 10be 97a6 72be
00000070: 65de 493e a812 21bd 6694 fb3d 3e97 efbd
00000080: 4b1a cabb 25a1 bf3b 8d6d 383d d058 2bbd
00000090: d863 8ebd bfae f63d 9eb0 c73d 7906 32bd
000000a0: 1339 403d 29f4 573d cb27 443e d74c 47bd
000000b0: a48f b7bd f4b9 f03d 0a8e 59be fd6a 6ebd
000000c0: 31f2 71bd 5d92 e7bd 3f23 2bbe 6d2a 13bd
000000d0: c5bb 833e 6532 353e f7f8 0e3e 210d a2bb
000000e0: 672a abbb cac5 343d 5a38 d7bd 4226 253d
000000f0: 06b8 a53d 76ef 20bc 622f c4bc daa1 b8bc
00000100: a417 163c 1e75 a5bd a841 883c 035a 873c
00000110: b1af ddbc 8391 5cbd 1876 c1bc 9bc6 003d
00000120: 5ab4 90bb 4118 39bd d16c 06bd c5a0 a83c
00000130: 78c4 0f3d a153 543d 739f b0bc 0901 d8bd
00000140: 3bbf 743e 4054 da3c beda 37bd 6f97 57be
00000150: af3b dfbc 911c f5bd fd19 053e 7330 f53d
00000160: 35d4 c03d f786 8abd 016f 82bd 932e d03d
00000170: 4fd3 a7bd 72d9 423e f90a b63c d26f 5bbe
00000180: 88fa 9e3d 68cd e03c acf6 ba3d 5a5a 63bd
00000190: 0589 79bd 735d 4bbe 6152 2dbe def0 90bc
000001a0: ba9f 8fbd 3ba0 b03d f74a 4b3d b7e5 6cbc
000001b0: d7d6 e43c 644c 623e 0c58 40bd 4b9e 283d
000001c0: 4821 b1bd 7f85 423e 68dc 3b3d 5434 693c
000001d0: bc53 76be 806e 573d 7bd7 cb3d 0855 c93d
000001e0: 5cbd 033d 15d6 b03d 6084 e0bc baf3 edbc
000001f0: c0f2 c23b 4826 c0bd bbac b23c 751d dd3c
00000200: 1ca9 b23d c307 343e cf03 843d f584 4dbe
00000210: 9931 e63c e9d5 25bd 5716 303c e2c6 5a3e
00000220: 2efb f9bc 199f a8bd 2148 2c3d a54d 343d
00000230: b7d7 953d 8919 15ba 235e b8bd d8d8 c2bd
00000240: b199 eb3d 58e3 58bd b290 81be 55bc b83c
00000250: bfab 22bd e965 d43d cf57 173d 2890 2dbc
00000260: 29b7 c03d c889 a93c a413 7b3d 5b63 493c
00000270: d161 d43c fd97 993d 3711 693c 72ac 193d
00000280: ac8a 9c3d f54b c23b 0aa8 463d e6bc 673d
00000290: 67d3 a23c c15e a9bd be5d 04bd eab9 e33d
000002a0: 67f6 04be d93a 133d e573 cebb 985b 4a3c
000002b0: 912d 3e3e a5c3 b0bd af1f 12bd b084 523d
000002c0: 3905 28bd 4571 1abd 38e3 90bd 1bdb ca3c
000002d0: 6afa e23b d7ba 45bc 6fc3 e8bc 06c4 d43d
000002e0: 65f0 9b3b 8d4d 84bc 794f c03d 7361 7d3d
000002f0: 2f4e a63b 2432 143d 96fd 863d 3859 963d
00000300: e4de e33d 71d5 f73d eb8a d13d 832e f73b
00000310: c9b8 2cbb 7044 293b 1a9d fcbd 8444 dc3d
00000320: 4c06 4d3e f5b1 3abd e556 09bb 03c9 37bd
00000330: daf1 65bb 0f6b 8e3e c13b 16bd 79b0 2a3d
00000340: 3e12 b3ba b3ce 49be 6a02 3f3e cae2 f53d
00000350: 9cb0 8f3d 7068 443c a79e 2b3e 9741 e4bd
00000360: 4e6e 38ba 83ad 4c3d 9c14 75bc 1220 dc3d
00000370: 8188 39bb ef85 4bbe a266 743a 89ac 953d
00000380: 16f8 9dbd a190 023d c716 c0bd d867 1c3d
00000390: e86a a3bd 14be 743e 7aea 26be 846d f63c
000003a0: 6a89 10bc 2e8b 0f3e 5682 10bd 63bf 99bd
000003b0: 39f1 483e 6a31 32b9 48b3 e6bd 1f3d 97bd
000003c0: ff60 383d 76fe 2a3d 65e1 1d3e 1a42 443e
000003d0: 167b 64bd 8987 52bc 0d97 5f3d 6182 2dbd
000003e0: 8ee1 6e3d 88d4 8d3e 914a 0cbe a829 843b
000003f0: f1ad 653d aad8 cdbd 75a0 adbc c1b5 653d

fc2.bias f4 [128]
0.06678781 -0.14901823 0.027935365 0.17742692 0.06926798 -0.055808194 0.20855075 -0.091478385
-0.048360042 0.053117786 -0.03563786 0.0586984 -0.1249796 0.13368653 0.1487545 0.27767587
0.20183851 0.050748795 0.1530584 0.101993255 0.11927326 0.14512381 -0.029851861 0.054452345
0.17696147 0.23928724 0.010800997 0.2198496 0.08190518 0.037355054 0.08770703 0.12812854
0.014967498 0.26286772 -0.021209883 0.056812953 -0.030052023 0.0920996 0.007283458 0.06731744
0.20583911 0.022370119 -0.06907007 0.15645258 0.2474691 0.06304748 0.17502867 -0.011946262
0.062200256 0.15938121 -0.031386923 0.13217922 0.2771271 0.11368563 0.22416592 0.18710186
-0.0056863804 0.1720301 0.106897235 0.12643725 0.19866933 0.035342667 -0.010955309 0.13609403
0.019157443 -0.11056224 -0.0055291792 0.09883519 0.033493724 0.030796219 0.20338163 0.028915338
-0.11948934 0.18510891 0.090378515 0.011989447 -0.040898137 0.061946705 -0.062824436 0.17468235
0.15119761 -0.0074427924 0.0532154 0.3096077 0.14810851 -0.006017263 -0.017184744 0.04100716
-0.0218005 -0.031727932 -0.027692191 0.15612039 0.19161318 0.0938782 0.026895927 0.09419995
0.03785831 0.15018259 0.07542408 0.1728815 0.08868556 -0.012716899 0.06732997 0.028967801
0.21102412 0.14956883 0.10728582 0.054522756 0.18614091 0.20826922 0.1024785 0.102394834
0.16690147 0.1515287 -0.116520666 0.032495633 0.012781867 -0.0003639556 -0.058331683 0.10969949
0.1993904 0.2402177 -0.034100402 0.21590424 0.14353797 0.073730335 0.17682175 0.037697185
00000000: 0cc8 883d 3c98 18be b5d8 e43c 67af 353e
00000010: 5fdc 8d3d 2297 64bd 548e 553e 0559 bbbd
00000020: 2e15 46bd 0992 593d 01f9 11bd bc6d 703d
00000030: 4ef5 ffbd 1fe5 083e 1a53 183e 882b 8e3e
00000040: c1ae 4e3e f8dd 4f3d 57bb 1c3e d7e1 d03d
00000050: 8a45 f43d 569b 143e e48b f4bc 6c09 5f3d
00000060: 6335 353e b707 753e aaf6 303c 4120 613e
00000070: e7bd a73d 9d01 193d be9f b33d 2134 033e
00000080: 3d3a 753c 9996 863e 59c0 adbc b3b4 683d
00000090: a92f f6bc b79e bc3d 13aa ee3b badd 893d
000000a0: 7dc7 523e 8a41 b73c 9c74 8dbd 1b35 203e
000000b0: 8a68 7d3e 0a1f 813d b73a 333e 41ba 43bc
000000c0: b2c5 7e3d d434 233e 938f 00bd fd59 073e
000000d0: 9ae3 8d3e 03d4 e83d c08b 653e a197 3f3e
000000e0: d154 babb a928 303e f0ec da3d c478 013e
000000f0: f96f 4b3e 79c3 103d e57d 33bc 3c5c 0b3e
00000100: 12f0 9c3c 756e e2bd 1e2e b5bb 1b6a ca3d
00000110: b730 093d 5a48 fc3c 4643 503e dcdf ec3c
00000120: d4b6 f4bd 318d 3d3e 5f18 b93d 636f 443c
00000130: ce84 27bd d4bb 7d3d 19aa 80bd eedf 323e
00000140: 8cd3 1a3e abe2 f3bb 64f8 593d e784 9e3e
00000150: c2a9 173e 762c c5bb 05c7 8cbc 20f7 273d
00000160: f696 b2bc 26f5 01bd bcda e2bc 06de 1f3e
00000170: 3f36 443e 3743 c03d d954 dc3c e7eb c03d
00000180: 5111 1b3d 77c9 193e f177 9a3d d907 313e
00000190: c6a0 b53d 8a5a 50bc 4ce4 893d e24d ed3c
000001a0: b516 583e 9228 193e abb8 db3d 4153 5f3d
000001b0: b99b 3e3e 8744 553e 3fe0 d13d 62b4 d13d
000001c0: 38e8 2a3e 572a 1b3e 63a2 eebd 241a 053d
000001d0: 096b 513c 4bd1 beb9 34ed 6ebd 20aa e03d
000001e0: ff2c 4c3e a1fb 753e ddac 0bbd 0016 5d3e
000001f0: 9efb 123e eeff 963d c310 353e 5d68 1a3d

fc3.weight f4 [10, 128]
-0.19036877 0.09678546 0.15624484 -0.078271866 -0.08528662 0.057112336 0.13549092 -0.15161099
-0.069154225 0.05175288 0.14606644 -0.15778852 -0.07817869 0.121816374 -0.016700212 0.20928277
0.14047697 0.17049833 0.13848855 -0.016239664 -0.37164268 -0.034574512 -0.055854514 0.07120817
-0.27448466 0.14535627 0.11004331 0.25872195 -0.31271124 -0.14169274 -0.24384929 0.30225614
-0.34452793 0.07309896 -0.02521448 -0.40365714 0.066307634 0.08671125 -0.06272684 0.16168413
0.15344238 -0.13985308 -0.08787683 -0.14039241 -0.0953118 0.14049952 -0.15689015 -0.20625308
-0.042115413 -0.21183193 0.19835997 -0.306329 0.10297087 -0.3927639 0.13769253 -0.16220105
0.10283763 -0.22311252 0.14072011 0.0032346586 0.17312194 -0.16360119 0.14841585 -0.22559306
-0.26691264 0.07823275 -0.26310888 0.0747107 -0.18983738 0.19162846 0.00048460398 -0.19546585
-0.23004143 -0.32712096 -0.10071739 -0.03320204 -0.26861662 -0.013962803 -0.29178086 0.14777595
-0.38157004 0.082657665 0.2169227 -0.016240017 -0.24644019 0.23858027 0.17974803 -0.27471164
0.0051133847 -0.22905116 0.15331647 -0.11834005 0.17521131 -0.19629206 -0.15029427 -0.048078932
-0.043299284 -0.13705589 0.0018934652 -0.03296256 -0.31315002 0.11923797 -0.091432236 -0.36205098
0.11088068 0.09979233 -0.16712327 0.09307975 -0.22442994 0.078451335 0.016677018 -0.076356865
-0.16264904 0.1449646 -0.23787606 -0.26528373 -0.30904108 0.09189379 -0.33200404 -0.24610023
0.10070809 0.09791528 -0.29803082 -0.13102354 -0.05167304 0.03457911 0.11593687 -0.28082153
0.16330554 -0.09042499 0.113963634 0.17345572 -0.23539877 -0.011562776 0.07753367 -0.14912266
0.025261877 -0.16068265 -0.21109436 0.1972907 0.20586525 -0.39107758 -0.0849342 0.23520748
-0.21549937 -0.2310917 0.19849227 0.013984887 0.054859266 0.21791269 0.29933205 -0.12003274
0.12290257 -0.26014653 -0.39313316 -0.02002894 -0.1991915 0.13065888 -0.07515337 -0.09264122
-0.2072695 -0.19541937 0.055681773 0.099923916 0.016126994 0.062837735 0.20869617 0.05161514
-0.3057992 -0.1153004 0.22425364 -0.2532092 0.16892768 -0.35077235 -0.3477787 0.12440975
-0.31649593 0.14985387 -0.114521004 0.16149808 -0.29070327 0.15253076 -0.19950686 -0.11264402
-0.18999234 -0.34715873 -0.24242753 -0.22841097 -0.18752432 0.18045649 -0.24717616 0.09927883
-0.096008435 0.08267255 0.057972565 -0.32157853 -0.28119522 -0.29303747 -0.22566184 -0.26156956
0.10548448 -0.27849588 0.118046045 0.16106458 0.1714222 0.18670243 -0.02713772 -0.29944488
0.10851133 -0.36830765 -0.12833545 -0.00037054508 -0.2773191 -0.24687375 -0.15908875 0.081020795
0.08120995 0.107459165 0.14137882 -0.18952377 0.0852436 -0.08341542 -0.16647905 -0.27168277
0.10996113 0.11819983 -0.21325609 -0.25450635 0.08299812 0.12759586 0.05965399 0.07143894
-0.040319353 -0.3673308 0.115953185 0.1323846 0.20199989 -0.33550525 0.09844335 -0.23913962
-0.28734064 0.09096543 0.0039023526 0.044059437 0.049406383 -0.10760164 0.17273574 -0.1862862
-0.13598874 -0.23264277 0.0871152 0.13992536 -0.24199551 -0.23664351 -0.17942527 0.11308721
00000000: 08f0 42be 7537 c63d a6fe 1f3e 004d a0bd
00000010: c0aa aebd a0ee 693d 22be 0a3e e93f 1bbe
00000020: bba0 8dbd d4fa 533d 7192 153e 5093 21be
00000030: 261c a0bd dd7a f93d e2ce 88bc 394e 563e
00000040: 32d9 0f3e 1d97 2e3e f1cf 0d3e 0b09 85bc
00000050: f347 bebe 019e 0dbd b4c7 64bd 97d5 913d
00000060: 4189 8cbe 46d8 143e 635e e13d 3477 843e
00000070: b01b a0be e717 11be a1b3 79be 51c1 9a3e
00000080: f765 b0be e8b4 953d 998e cebc 26ac cebe
00000090: 4ccc 873d ab95 b13d ee76 80bd 8690 253e
000000a0: 0020 1d3e a535 0fbe c4f8 b3bd 07c3 0fbe
000000b0: d532 c3bd 1bdf 0f3e d0a7 20be 0234 53be
000000c0: 3681 2cbd 78ea 58be e01e 4b3e 28d7 9cbe
000000d0: 64e2 d23d 5a18 c9be 45ff 0c3e 0818 26be
000000e0: 899c d23d 9c77 64be ef18 103e 91fc 533b
000000f0: e146 313e 1287 27be 53fa 173e de01 67be
00000100: c6a8 88be 7e38 a03d 35b6 86be ec01 993d
00000110: bb64 42be 403a 443e 7212 fe39 3328 48be
00000120: fb8f 6bbe 667c a7be eb44 cebd ddfe 07bd
00000130: 1e88 89be 3ec4 64bc 4d64 95be 9452 173e
00000140: 265d c3be 6c48 a93d fc20 5e3e c909 85bc
00000150: d15a 7cbe 634e 743e de0f 383e 01a7 8cbe
00000160: 2e8e a73b 638c 6abe fefe 1c3e 455c f2bd
00000170: 986a 333e c900 49be bee6 19be 6aee 44bd
00000180: 975a 31bd 6158 0cbe 262e f83a c003 07bd
00000190: 3355 a0be 0933 f43d d340 bbbd bf5e b9be
000001a0: 6915 e33d ec5f cc3d 5d22 2bbe 99a0 be3d
000001b0: f6d0 65be 18ab a03d 3e9e 883c fd60 9cbd
000001c0: 788d 26be 9a71 143e c895 73be 45d3 87be
000001d0: a23a 9ebe d032 bc3d 6ffc a9be b301 7cbe
000001e0: 0b40 ce3d ce87 c83d 7f97 98be 092b 06be
000001f0: 1ca7 53bd d3a2 0d3d 4f70 ed3d d7c7 8fbe
00000200: 9139 273e bd30 b9bd c465 e93d 609e 313e
00000210: 600c 71be cc71 3dbc f9c9 9e3d 9cb3 18be
00000220: fff1 ce3c fe89 24be 1f29 58be 9306 4a3e
00000230: 57ce 523e 523b c8be fbf1 adbd 3bda 703e
00000240: deab 5cbe 4da3 6cbe 8f41 4b3e de20 653c
00000250: 1cb4 603d 8124 5f3e 0d42 993e bad3 f5bd
00000260: 58b4 fb3d ed31 85be c048 c9be bb13 a4bc
00000270: dbf8 4bbe 71cb 053e 03ea 99bd aeba bdbd
00000280: 753e 54be 041c 48be 9212 643d e9a4 cc3d
00000290: c21c 843c 12b1 803d 73b4 553e 666a 533d
000002a0: b691 9cbe 9e22 ecbd bfa2 653e a3a4 81be
000002b0: 61fb 2c3e 6f98 b3be 0d10 b2be 8aca fe3d
000002c0: c10b a2be 4b73 193e fd89 eabd c15f 253e
000002d0: 0fd7 94be 0631 1c3e 874b 4cbe e8b1 e6bd
000002e0: 5a8d 42be cabe b1be ec3e 78be 91e4 69be
000002f0: 6006 40be 96c9 383e bf1b 7dbe b352 cb3d
00000300: 12a0 c4bd 3a50 a93d a474 6d3d f1a5 a4be
00000310: d2f8 8fbe 0209 96be e613 67be 72ec 85be
00000320: 3f08 d83d 0397 8ebe 20c2 f13d 1dee 243e
00000330: 4d89 2f3e ec2e 3f3e ec4f debc d750 99be
00000340: 303b de3d d292 bcbe 5e6a 03be b845 c2b9
00000350: c5fc 8dbe 79cc 7cbe 29e8 22be 3bee a53d
00000360: 6751 a63d 8d13 dc3d 9cc5 103e 8512 42be
00000370: 3294 ae3d b4d5 aabd 7c79 2abe 011a 8bbe
00000380: 4d33 e13d c112 f23d ce5f 5abe a84e 82be
00000390: ebfa a93d 7da8 023e be57 743d 944e 923d
000003a0: e825 25bd c812 bcbe dd78 ed3d d48f 073e
000003b0: 0fd9 4e3e 58c7 abbe ab9c c93d 04e1 74be
000003c0: 501e 93be 154c ba3d 9dbe 7f3b ab77 343d
000003d0: 595e 4a3d 405e dcbd a3e1 303e cfc1 3ebe
000003e0: a240 0bbe e839 6ebe 7469 b23d 9848 0f3e
000003f0: accd 77be ad52 72be 42bb 37be 449a e73d

fc3.bias f4 [10]
0.1147763 0.08999327 -0.20526032 -0.11410689 0.1740488 -0.081174165 -0.14961559 -0.18441924
0.23271465 0.08918872
00000000: d60f eb3d 644e b83d c32f 52be e0b0 e9bd
00000010: d939 323e a43e a6bd d434 19be 66d8 3cbe
00000020: c04c 6e3e 93a8 b63d
