day3/checkpoint2.pt (torch, 942423 bytes, 6 tensors)

fc1.weight f4 [256, 784]
0.015397567 0.029570904 -0.015581591 -0.017278587 0.009364903 0.0071466453 0.030799497 -0.020336416
0.007377036 0.016627524 -0.022448778 0.00071910024 0.018175095 -0.015114892 0.0055335425 -0.033154037
-0.028383797 -0.011292117 -0.0042867996 0.009579368 0.008742258 0.009531982 0.025569461 -0.024485767
0.020380054 -0.025303274 -0.005881395 -0.013952093 -0.032986533 0.0057471655 -0.020792633 -0.0074029434
-0.010522783 0.0036687814 -0.014132535 0.021754429 0.030938338 -0.008983165 0.0054850383 0.016670998
-0.009132718 -0.020371445 -0.015128685 -0.019470666 0.005555401 0.0078285355 0.0047193137 -0.029155947
0.0114099765 -0.043351125 -0.0125478 0.029120196 0.025526881 -0.021552969 -0.033808805 0.029667359
-0.017215682 -0.018085271 0.033105474 0.051741343 0.012832607 -0.02783151 0.04742532 0.046378855
0.010980857 -0.019500216 -0.04089415 -0.025666907 -0.032285806 -0.020654362 -0.036105957 -0.02259749
-0.037964605 -0.024496201 -0.08201877 -0.012388066 -0.0307981 -0.05791228 -0.034140836 -0.032555476
0.014390723 -0.020091755 0.0028328411 0.007672742 0.011099972 0.03312016 -0.00080094486 0.02341897
0.015806707 -0.027026134 -0.06807411 -0.046300042 -0.0021004912 -0.007636028 -0.060099367 -0.065544255
-0.0027380027 -0.017561741 0.00015054306 -0.016349018 -0.03722191 -0.078976355 -0.08309835 -0.05785697
-0.04800115 -0.0675751 -0.095879115 -0.07581794 -0.06621281 0.04807429 0.048150264 0.026469931
0.0064964853 -0.011540389 0.018426295 -0.014863026 -0.023530848 -0.058784325 -0.038551666 0.0016500965
-0.06638157 -0.06855977 -0.091944456 -0.022527672 0.012330177 -0.016504353 -0.00019269122 -0.0022368215
0.0074661216 -0.030668596 -0.07074544 -0.07055759 -0.08344679 -0.0804101 -0.06252498 -0.033419494
0.035167795 0.06441847 0.04321527 -0.026424397 -0.022564638 0.013861418 0.00688006 0.03365537
0.00787179 -0.07897443 -0.05794671 0.0022495503 -0.03939647 -0.09879837 -0.05307683 -0.037632022
0.0017099496 -0.0018586532 -0.02864634 -0.055552877 -0.12193297 -0.10891855 -0.10829658 -0.07746794
-0.012829172 0.035019036 0.03853179 0.051814586 0.046614558 0.06036086 0.04003374 0.082592696
0.03200871 -0.027990934 0.076810375 -0.027268587 -0.043345526 0.02083067 0.051704556 0.009633161
-0.035381347 -0.08924691 6.467903e-05 0.007932417 0.04504267 0.05158704 -0.018889442 -0.07406333
-0.10829561 -0.05004559 -0.05864311 0.0049632695 -0.010874326 0.043540645 0.02842103 0.05233175
0.038692184 0.06360439 0.03446412 0.16384445 0.029436484 0.02598496 0.012219404 -0.07330106
-0.105815694 0.03127811 0.110282324 0.061970573 -0.035742708 0.02947782 0.06293789 0.057984747
0.10615407 0.06754835 0.0020242215 0.009217631 0.014135747 0.043770496 0.045334153 0.07874249
0.052939642 0.04254754 0.017698104 0.02507938 -0.008149706 0.035421394 0.07408885 0.10023016
-0.021552455 -0.0024194212 0.0638405 -0.026906269 -0.0732818 0.011153177 0.08024326 0.023571778
0.017019032 -0.0132301515 0.04428168 0.08968434 0.1193893 0.09088404 0.11145875 0.059697617
0.067450166 0.029257055 0.08320291 0.07216944 0.025390586 0.024537044 -0.014858948 0.014209306
0.1057003 0.07269169 0.03780159 0.0354291 0.031869706 0.0608952 0.056481577 -0.05768161
00000000: 1446 7c3c ae3e f23c ee49 7fbc d38b 8dbc
00000010: 406f 193c 682e ea3b 3a4f fc3c 8e98 a6bc
00000020: 10bb f13b 7236 883c 80e6 b7bc 0082 3c3a
00000030: f0e3 943c 74a4 77bc b852 b53b 87cc 07bd
00000040: 2385 e8bc 9202 39bc 4878 8cbb c8f2 1c3c
00000050: b03b 0f3c 082c 1c3c 0c77 d13c 6096 c8bc
00000060: 12f4 a63c d048 cfbc b8b8 c0bb 5297 64bc
00000070: e31c 07bd b852 bc3b 5055 aabc 6494 f2bb
00000080: c067 2cbc f06f 703b 268c 67bc 5836 b23c
00000090: 6672 fd3c 202e 13bc d6bb b33b 9e91 883c
000000a0: 65a1 15bc 04e2 a6bc 4ede 77bc f280 9fbc
000000b0: 150a b63b 4243 003c 79a4 9a3b 74d8 eebc
000000c0: e9f0 3a3c f390 31bd 4a95 4dbc 7a8d ee3c
000000d0: c01d d13c da8f b0bc 1a7b 0abd f608 f33c
000000e0: e707 8dbc 9027 94bc 9b99 073d bbee 533d
000000f0: db3f 523c e8fe e3bc 0d41 423d c1f7 3d3d
00000100: 0de9 333c ebbe 9fbc a080 27bd 6843 d2bc
00000110: 1f3e 04bd 5633 a9bc d7e3 13bd 5f1e b9bc
00000120: c680 1bbd 42ac c8bc 75f9 a7bd 51f7 4abc
00000130: 4c4c fcbc 6d35 6dbd 43d7 0bbd e458 05bd
00000140: 11c7 6b3c 7797 a4bc 30a7 393b a06b fb3b
00000150: a8dc 353c 01a9 073d 80f6 51ba 24d9 bf3c
00000160: 117d 813c e965 ddbc 706a 8bbd 1da5 3dbd
00000170: 65a8 09bb a537 fabb c12a 76bd 113c 86bd
00000180: 1070 33bb a4dd 8fbc 18db 1d39 60ee 85bc
00000190: 0076 18bd 5bbe a1bd 782f aabd 6efb 6cbd
000001a0: db9c 44bd d064 8abd 455c c4bd 7046 9bbd
000001b0: 959a 87bd 8ce9 443d 3639 453d 78d7 d83c
000001c0: 78e0 d43b e613 3dbc bef2 963c 0d84 73bc
000001d0: c4c3 c0bc d5c7 70bd 5ae8 1dbd 0d48 d83a
000001e0: 10f3 87bd 1169 8cbd 604d bcbd f48b b8bc
000001f0: 8304 4a3c 2334 87bc 280d 4ab9 a397 12bb
00000200: 5ea6 f43b b53c fbbc fce2 90bd 7f80 90bd
00000210: 27e6 aabd 0dae a4bd 190d 80bd e1e2 08bd
00000220: 1b0c 103d d5ed 833d 7f02 313d fa77 d8bc
00000230: 7ad9 b8bc 001b 633c 2072 e13b 37da 093d
00000240: aef8 003c 59bd a1bd 8859 6dbd 316d 133b
00000250: 315e 21bd cd56 cabd 1767 59bd 0924 1abd
00000260: 6320 e03a 0d9e f3ba bbab eabc 6a8b 63bd
00000270: feb7 f9bd b010 dfbd 99ca ddbd 83a7 9ebd
00000280: 7331 52bc 1f70 0f3d 83d3 1d3d 883b 543d
00000290: e8ee 3e3d f33c 773d 6bfa 233d 5c26 a93d
000002a0: 911b 033d 3e4d e5bc c24e 9d3d 5f62 dfbc
000002b0: 148b 31bd 15a5 aa3c 28c8 533d 68d4 1d3c
000002c0: 08ec 10bd 15c7 b6bd 4aa4 8738 f8f6 013c
000002d0: aa7e 383d ef4c 533d 08be 9abc 84ae 97bd
000002e0: 17ca ddbd 9bfc 4cbd c233 70bd eca2 a23b
000002f0: 3b2a 32bc ad57 323d 38d3 e83c d159 563d
00000300: b27b 1e3d 0543 823d 402a 0d3d d7c6 273e
00000310: c824 f13c 69de d43c e533 483c de1e 96bd
00000320: e6b5 d8bd 7a1d 003d b3db e13d dbd4 7d3d
00000330: f266 12bd 787b f13c 95e5 803d 6a81 6d3d
00000340: 4e67 d93d ca56 8a3d cda8 043b 8c05 173c
00000350: 9f99 673c b148 333d 4eb0 393d be43 a13d
00000360: 3dd7 583d 5446 2e3d 9dfb 903c 4673 cd3c
00000370: 5886 05bc 0616 113d e5bb 973d 7845 cd3d
00000380: c68e b0bc 278f 1ebb cfbe 823d 896a dcbc
00000390: c514 96bd d1bb 363c 9456 a43d 9a19 c13c
000003a0: 7f6b 8b3c 47c3 58bc b560 353d 6cac b73d
000003b0: 6182 f43d 6921 ba3d 7c44 e43d 7d85 743d
000003c0: 5023 8a3d 7eac ef3c 4a66 aa3d 92cd 933d
000003d0: ebff cf3c e901 c93c f272 73bc 26ce 683c
000003e0: 6679 d83d 61df 943d d7d5 1a3d 1b1e 113d
000003f0: cf89 023d 3f6d 793d 3a59 673d 8d43 6cbd

fc1.bias f4 [256]
0.07776567 -0.07323412 0.0641805 0.037874356 0.06671466 0.059586853 0.0047868295 0.039272856
-0.024596276 0.028498046 0.07814859 -0.024914807 0.04930363 -0.01469084 -0.04039998 0.017403461
0.040772215 -0.0054512713 -0.015464831 -0.01567484 0.0035274716 0.057811838 0.08549482 0.0017790473
-0.011508311 -0.066944696 -0.046100803 -0.05189483 0.10765554 -0.020594334 0.0814957 0.05598028
-0.041615352 -0.02908342 -0.023975255 -0.008715095 0.059464578 0.03745947 0.0728613 0.035950467
0.03855989 -0.020546265 -0.022021612 -0.045352705 -0.009805709 -0.0018638399 0.029098663 0.0075534033
0.07995786 -0.061078306 0.006751995 0.017837742 0.09678038 0.0111973155 0.08607945 -0.0455354
0.0550635 0.018247442 -0.07878529 0.021246139 0.026230605 0.019567324 0.014696721 0.02511564
-0.032228533 -0.059883624 -0.050027717 0.064224936 0.05723391 -0.009547794 -0.055009488 0.02452791
0.049839232 0.035490356 -0.03504686 -0.013049948 0.08280832 0.0006036972 -0.1091384 0.044867888
0.03874077 0.019378737 -0.09202593 0.021515608 -0.018286409 0.09109256 -0.059408467 0.114839025
-0.040795255 -0.008009738 -0.008775142 0.080595 -0.036616426 0.02704013 0.06332006 -0.023299431
0.05469993 0.031865668 0.04738064 -0.094564945 0.038825005 -0.083770975 0.034957603 -0.04979423
0.05801721 0.13356608 0.045695867 -0.028241929 0.06409507 -0.018805584 -0.07877068 -0.039611347
0.084485166 -0.038030412 0.002707502 0.058227707 0.035200536 -0.0384404 0.07451101 0.012636692
0.0049241334 0.13289982 0.09547358 -0.03189476 0.078392595 0.07042848 0.04824664 -0.019017788
-0.045987643 0.087819256 0.012843393 -0.045941483 0.048903503 -0.07212522 -0.048387382 0.0884268
-0.041630365 -0.007444947 0.007924333 0.05546382 0.0570321 0.036885962 0.0151451975 0.04218896
0.027504673 -0.053659305 -0.095235035 -0.023979276 -0.041512765 0.0614166 0.13390402 0.079428956
0.067531735 0.012814382 -0.012781689 0.0041812537 0.012002716 -0.023297668 0.008327901 0.061332714
-0.015469339 0.042356823 0.011801016 0.07410819 0.013193528 -0.00032593386 -0.028902363 -0.10184534
-0.032668646 -0.003905223 0.034923926 0.030068576 -0.054792274 0.030622486 0.016450752 -0.037321635
-0.038231973 0.03691017 -0.018633181 0.014647307 0.014183679 -0.00017864731 -0.05543286 0.056996513
-0.062078316 0.06313132 -0.020793593 0.030154487 -0.008287207 -0.05604351 0.053071205 -0.067451596
0.03161731 -0.061741967 -0.018232495 0.0028962046 0.002842186 0.06824127 -0.050693586 0.03573394
-0.013783852 -0.00012162741 -0.032043103 0.030809138 0.032142535 0.0721951 0.043501474 0.04829724
0.014123863 -0.00989558 0.119507916 0.030758448 0.04599129 -0.048806813 0.06753527 -0.0015031364
0.026168007 0.10023838 0.04616203 0.042208616 -0.05193987 -0.037988644 0.056693193 0.10035811
-0.07973645 0.0039514233 0.05090867 0.07927067 0.05309674 0.12018733 -0.049394064 0.020447312
0.056117114 0.06087298 0.01835338 -0.10851803 0.0003005542 -0.043019094 0.0047918614 0.072605625
0.06697469 0.021370154 0.025020946 -0.011874793 0.041507 -0.046642266 -0.015442475 0.0032569114
0.004856302 0.043136034 -0.028018646 0.02431833 0.081929594 0.027219312 -0.06592875 0.0012378751
00000000: 9c43 9f3d c5fb 95bd 1171 833d 2422 1b3d
00000010: b2a1 883d 5811 743d d6da 9c3b 93dc 203d
00000020: 217e c9bc bc74 e93c 5e0c a03d 231a ccbc
00000030: 9af2 493d d9b1 70bc 737a 25bd b491 8e3c
00000040: c400 273d 94a0 b2bb 3460 7dbc 8668 80bc
00000050: 272d 673b 1bcc 6c3d e817 af3d ec2e e93a
00000060: 5b8d 3cbc 4d1a 89bd 32d4 3cbd ac8f 54bd
00000070: 827a dc3d 73b5 a8bc 38e7 a63d 944b 653d
00000080: dc74 2abd 5a40 eebc c167 c4bc c2c9 0ebc
00000090: 2191 733d 1a6f 193d 4e38 953d cc40 133d
000000a0: faf0 1d3d a450 a8bc ab66 b4bc c2c3 39bd
000000b0: 20a8 20bc 174c f4ba 5260 ee3c 8a82 f73b
000000c0: f2c0 a33d 3f2d 7abd d73f dd3b 7520 923c
000000d0: cb34 c63d f274 373c 6c4a b03d 5483 3abd
000000e0: 448a 613d a97b 953c 2f5a a1bd 620c ae3c
000000f0: 91e1 d63c a74b a03c 84ca 703c 51bf cd3c
00000100: 1102 04bd 8848 75bd dde9 4cbd 5d88 833d
00000110: 1b6e 6a3d 5a6e 1cbc a151 61bd c1ee c83c
00000120: 3924 4c3d 565e 113d 4c8d 0fbd 73cf 55bc
00000130: 6997 a93d 6f41 1e3a f483 dfbd 64c7 373d
00000140: a4ae 1e3d 28c0 9e3c 1778 bcbd 8041 b03c
00000150: 61cd 95bc bc8e ba3d 4b56 73bd b930 eb3d
00000160: ed18 27bd 473b 03bc 9dc5 0fbc fe0e a53d
00000170: 1bfb 15bd 4383 dd3c f3ad 813d 73de bebc
00000180: 090d 603d 9385 023d 3412 423d 44ab c1bd
00000190: f806 1f3d 1e90 abbd b42f 0f3d 09f5 4bbd
000001a0: 74a3 6d3d 8cc5 083e 972b 3b3d 9e5b e7bc
000001b0: 4744 833d 2b0e 9abc 8652 a1bd 823f 22bd
000001c0: 8f06 ad3d c7c5 1bbd 5970 313b 2d80 6e3d
000001d0: 702e 103d ae73 1dbd 3a99 983d 210a 4f3c
000001e0: a05a a13b e416 083e a787 c33d 14a4 02bd
000001f0: 4c8c a03d cf3c 903d 459e 453d 31cb 9bbc
00000200: 8a5d 3cbd 95da b33d 186d 523c 232d 3cbd
00000210: 0a4f 483d 63b6 93bd d931 46bd 1c19 b53d
00000220: 9a84 2abd bef4 f3bb 10d5 013c 082e 633d
00000230: 7e9a 693d bc15 173d 9023 783c 55ce 2c3d
00000240: 7b51 e13c dcc9 5bbd 960a c3bd 3070 c4bc
00000250: 4a09 2abd f98f 7b3d 231e 093e a6ab a23d
00000260: 144e 8a3d 6af3 513c 4a6a 51bc e602 893b
00000270: 0aa7 443c c0da bebc c071 083c 0338 7b3d
00000280: 1c73 7dbc 597e 2d3d 0c59 413c 09c6 973d
00000290: ab29 583c 1ae2 aab9 a6c4 ecbc 4a94 d0bd
000002a0: 8fcf 05bd c5ee 7fbb 640c 0f3d 6052 f63c
000002b0: dd6d 60bd 02dc fa3c bac3 863c 92de 18bd
000002c0: 2199 1cbd 1e2f 173d 9da4 98bc 42fb 6f3c
000002d0: a962 683c 4653 3bb9 910d 63bd 2d75 693d
000002e0: d545 7ebd fe4a 813d 5357 aabc 8b06 f73c
000002f0: 11c7 07bc e18d 65bd 3161 593d 1024 8abd
00000300: 2781 013d 25e5 7cbd 505c 95bc 40ce 3d3b
00000310: f843 3a3b 14c2 8b3d 14a4 4fbd c05d 123d
00000320: aad5 61bc 3812 ffb8 a13f 03bd 7263 fc3c
00000330: e4a7 033d 06db 933d 9a2e 323d 54d3 453d
00000340: c667 673c 1221 22bc 91c0 f43d 24f9 fb3c
00000350: 5d61 3c3d a7e9 47bd ee4f 8a3d e304 c5ba
00000360: 4a5e d63c c849 cd3d 6614 3d3d f1e2 2c3d
00000370: e7be 54bd fb99 1bbd 1f37 683d 8e88 cd3d
00000380: dd4c a3bd f17a 813b 9c85 503d a958 a23d
00000390: f87b 593d c624 f63d 6e51 4abd 1f81 a73c
000003a0: 0fdb 653d f255 793d d459 963c b33e debd
000003b0: b493 9d39 ca34 30bd 0c05 9d3b 42b2 943d
000003c0: 072a 893d 7610 af3c baf8 cc3c 7e8e 42bc
000003d0: 3e03 2a3d f60b 3fbd 6f02 7dbc e871 553b
000003e0: 9d21 9f3b 69af 303d 5c87 e5bc 3c37 c73c
000003f0: b4ca a73d 09fb de3c a705 87bd 3240 a23a

fc2.weight f4 [128, 256]
0.0067230477 -0.03887241 0.0047033103 0.02410303 0.1166164 0.025996335 0.007273375 0.02196862
0.124988355 0.046968352 0.09504976 -0.0785782 0.0516282 0.07541873 0.0015367422 -0.16508903
-0.030702146 -0.04297466 -0.067132585 -0.027960112 -0.042595882 0.18084915 0.031925112 0.0053742994
-0.0070671677 -0.1128674 -0.17736773 -0.21255611 0.11868553 -0.08094016 0.1139979 -0.06003807
-0.08696652 -0.0008471606 0.012383701 -0.017401896 -0.03744965 0.04664816 0.16097277 -0.006461363
0.026234942 0.042649426 0.03460774 -0.043710582 -0.06501317 0.06840709 -0.17146137 -0.0582075
-0.009278153 -0.05769441 -0.10405485 -0.0104659 0.14304034 0.11977504 0.15538773 -0.055184558
-0.018456427 0.028511772 -0.025138278 0.03185314 0.063786454 -0.10020238 -0.023948375 -0.010422167
-0.026532674 -0.048194278 -0.0014584902 -0.022599027 0.01606099 0.0054784445 -0.020367928 0.013958093
0.0061484706 -0.032498125 -0.022360958 0.020584473 0.020398155 0.07613706 -0.029347792 -0.033846345
0.18384038 0.004612304 -0.060619313 -0.10688594 0.01259324 -0.049473852 0.039862305 0.13895026
0.057722453 -0.05294874 -0.027503744 0.03691147 -0.038540985 0.15832567 -0.0051127253 -0.18154347
0.017690035 0.035779558 0.07345952 -0.03068099 -0.073756985 -0.110702306 -0.12908496 -0.026557384
-0.03150955 0.10698033 -0.028776525 0.007945047 0.006080418 0.20631702 -0.027772708 0.015810043
-0.06669496 0.13292985 0.045864493 0.0029062307 -0.13419217 0.052554082 0.1114293 0.054499958
0.03530116 0.0570005 0.014253557 -0.036487944 0.013685354 -0.00860248 -0.0058760704 0.013227919
0.018877845 0.12391467 0.023366531 -0.14780807 0.0503859 -0.026456468 0.019001048 0.12477178
-0.06591268 -0.014037088 0.01073689 0.01618631 0.04825893 0.018944439 -0.081743605 -0.05272341
0.16335061 -0.042984657 -0.12881257 0.05967716 -0.08743676 0.06860019 0.08995681 0.06707551
0.08746426 -0.003674621 0.060653985 0.029309437 -0.008110508 0.061847 0.014225296 0.06496829
0.05859153 0.038375415 0.04801289 0.042613354 -0.007022946 -0.014835617 -0.04894427 0.09423079
-0.04491685 -0.008294036 0.03932942 -0.009968926 0.106573254 -0.021077722 -0.035674747 0.061184607
-0.0128447935 -0.0109013105 -0.07515522 0.025459465 0.061033644 0.02516271 -0.02988389 0.097780295
0.05764745 -0.009471108 0.07143057 -0.026509931 0.005075238 -0.0030224712 -0.0046076057 0.042103384
0.07673213 0.029276684 0.08431795 -0.02152052 0.03070207 0.04273212 -0.067065716 0.08257002
0.06519587 -0.033759966 0.021780727 -0.04156805 0.015987556 0.22749254 0.0023937302 0.077651165
0.020919569 -0.09842237 0.14446482 0.1403719 0.060349617 0.006349724 0.09588094 -0.11335117
0.055281278 -0.016210131 -0.09303414 0.13514148 0.015371844 -0.13113506 0.006338612 0.07444476
-0.05867153 0.0069094524 -0.07429995 0.09028748 -0.058438744 0.16031353 -0.09019727 -0.010310246
-0.110497825 0.06671634 0.003530318 -0.103214204 0.0681196 -0.00069533306 -0.05681453 -0.004990038
-0.014656774 0.019222874 0.09347807 0.13758713 -0.027831204 -0.029078018 -0.022952985 -0.06300708
0.08088022 0.13734849 -0.09855604 0.09217235 0.08959389 -0.052344374 -0.0041105435 -0.0041848347
00000000: 034d dc3b ad38 1fbd 3a1e 9a3b b873 c53c
00000010: 94d4 ee3d 44f6 d43c 7e55 ee3b 89f7 b33c
00000020: e5f9 ff3d e361 403d 73a9 c23d 9bed a0bd
00000030: 1778 533d 2375 9a3d 836c c93a 190d 29be
00000040: 1183 fbbc 3206 30bd cf7c 89bd 9b0c e5bc
00000050: 0579 2ebd 8530 393e e8c3 023d e41a b03b
00000060: b393 e7bb 0627 e7bd e39f 35be 4fa8 59be
00000070: 6611 f33d f4c3 a5bd bb77 e93d 7bea 75bd
00000080: 811b b2bd fc13 5eba 02e5 4a3c 6c8e 8ebc
00000090: ce64 19bd 2412 3f3d 0cd6 243e d7b9 d3bb
000000a0: a9ea d63c 2ab1 2e3d d8c0 0d3d de09 33bd
000000b0: a025 85bd 0419 8c3d 9293 2fbe fd6a 6ebd
000000c0: 6503 18bc f950 6cbd b61a d5bd 2b79 2bbc
000000d0: 2b79 123e 9e4c f53d f61d 1f3e 3409 62bd
000000e0: ef31 97bc 8591 e93c caee cdbc 7078 023d
000000f0: 79a2 823d e836 cdbd 622f c4bc bdc1 2abc
00000100: 0d5b d9bc 5d67 45bd cf2a bfba 9821 b9bc
00000110: 5692 833c 8684 b33b a4da a6bc 7cb0 643c
00000120: 1c79 c93b c11c 05bd 542e b7bc c5a0 a83c
00000130: 081a a73c bfed 9b3d c86a f0bc 77a2 0abd
00000140: a740 3c3e cf22 973b f54b 78bd 04e7 dabd
00000150: e053 4e3c 18a5 4abd a846 233d fa48 0e3e
00000160: 616e 6c3d c7e0 58bd 884f e1bc 7b30 173d
00000170: 27dd 1dbd 2020 223e a688 a7bb 88e6 39be
00000180: b1ea 903c 968d 123d f271 963d b356 fbbc
00000190: e70d 97bd e4b7 e2bd d92e 04be df8e d9bc
000001a0: 2810 01bd 8118 db3d bfbc ebbc f12b 023c
000001b0: 3e3e c73b c544 533e 9783 e3bc 1084 813c
000001c0: 5e97 88bd c31e 083e 68dc 3b3d 7676 3e3b
000001d0: ac69 09be f342 573d 0b35 e43d 593b 5f3d
000001e0: f397 103d 5b79 693d c087 693c 6274 15bd
000001f0: 8938 603c 6bf1 0cbc 0d8c c0bb eab9 583c
00000200: b6a5 9a3c f9c6 fd3d 2b6b bf3c 005b 17be
00000210: 7261 4e3d 3cbb d8bc 16a8 9b3c 5988 ff3d
00000220: 3afd 86bd d0fb 65bc c8e9 2f3c 2799 843c
00000230: 28ab 453d 5e31 9b3c 3169 a7bd 81f4 57bd
00000240: 6245 273e ae10 30bd 71e7 03be 0a70 743d
00000250: 0b12 b3bd 427e 8c3d 473b b83d e35e 893d
00000260: 7620 b33d e9d1 70bb 5070 783d 581a f03c
00000270: f0e1 04bc 4853 7d3d 3711 693c 180e 853d
00000280: acfd 6f3d 8a2f 1d3d 2aa9 443d 578b 2e3d
00000290: be20 e6bb 1611 73bc c979 48bd 13fc c03d
000002a0: bbfa 37bd b5e3 07bc e317 213d b554 23bc
000002b0: 1443 da3d 30ab acbc af1f 12bd b69c 7a3d
000002c0: f872 52bc 699b 32bc fbea 99bd 5e90 d03c
000002d0: 6afe 793d 0722 ce3c 0fcf f4bc 0941 c83d
000002e0: bc1f 6c3d b52c 1bbc 314a 923d 5b2b d9bc
000002f0: 2f4e a63b a714 46bb 66fb 96bb 9974 2c3d
00000300: bc25 9d3d a8d5 ef3c e4ae ac3d cd4b b0bc
00000310: e882 fb3c e007 2f3d c059 89bd 781a a93d
00000320: 6a85 853d e447 0abd 7f6d b23c 4243 2abd
00000330: 56f8 823c cef3 683e 21e0 1c3b 9307 9f3d
00000340: 845f ab3c ab91 c9bd 96ee 133e a7bd 0f3e
00000350: 2931 773d 5811 d03b 3a5d c43d a924 e8bd
00000360: 9f6e 623d 1ccb 84bc af88 bebd 8762 0a3e
00000370: 30da 7b3c 4548 06be 22b4 cf3b 7f76 983d
00000380: 8f51 70bd b068 e23b 922a 98bd a4e8 b83d
00000390: 775d 6fbd 3b29 243e 59b9 b8bd 4eec 28bc
000003a0: af4c e2bd 94a2 883d e85c 673b f861 d3bd
000003b0: 4a82 8b3d 0347 36ba 5ab6 68bd 7983 a3bb
000003c0: f722 70bc 4a79 9d3c 6e71 bf3d a4e3 0c3e
000003d0: 44fe e3bc 0635 eebc e607 bcbc db09 81bd
000003e0: 87a4 a53d 15a5 0c3e c0d7 c9bd dbc4 bc3d
000003f0: 007d b73d 0e67 56bd bdb1 86bb f020 89bb

fc2.bias f4 [128]
0.09225295 -0.08216224 0.04331519 0.09788766 0.03185924 0.011325024 0.043531373 -0.04034914
-0.00044370277 0.044203993 -0.01600842 0.035518024 -0.052527815 0.04363859 0.11510853 0.13360476
0.03186897 -0.025508143 0.11631471 0.0606276 0.08976788 0.13143958 -0.00041697398 0.017580068
0.11047144 0.09989078 0.04582114 0.055756543 0.091565005 -0.010548488 0.043937203 0.063896894
0.0053481343 0.12214482 -0.01370221 0.050571773 0.0037410185 0.06013082 0.064144485 0.086568
0.07733851 0.053745672 -0.020414157 0.07076793 0.12438644 0.023261024 0.10423888 0.011919991
0.09443866 0.08009488 -0.040399242 0.077062964 0.15940835 0.09679368 0.1595469 0.08705546
-0.008893168 0.111222506 0.11078458 0.0672976 0.06408916 0.059884455 -0.025728526 0.089762464
0.030981477 -0.028759914 0.022562802 0.033906754 0.037407443 -0.025884693 0.07979157 -0.040557243
-0.03331291 0.14332351 0.041589383 0.05099388 0.03878101 0.071447656 0.0012121855 0.03569396
0.13124043 -0.016067563 0.019098949 0.13597107 0.10546199 -0.04251088 0.0050139325 0.050608166
0.020395698 -0.043550838 0.010094983 0.09888848 0.04849605 0.023573197 0.057843097 0.07706193
0.010019669 0.06375319 -0.02324347 -0.051798273 0.025734397 -0.020868922 0.008637213 0.006590258
0.10201077 0.06212905 0.051363606 0.06762544 0.041386195 0.106817745 0.07915357 0.025369592
0.13109869 0.057211265 -0.05986499 0.03784003 0.031590644 0.0052190972 -0.027472353 0.117008716
0.110164 0.11154183 -0.05436531 0.101553544 0.109166 0.062032614 0.101578064 0.08220576
00000000: 1def bc3d ad44 a8bd 456b 313d 5379 c83d
00000010: d67e 023d 988c 393c f44d 323d 2445 25bd
00000020: c7a0 e8b9 3f0f 353d 1724 83bc 597b 113d
00000030: 6827 57bd 61be 323d 05be eb3d b0cf 083e
00000040: 0989 023d 74f6 d0bc 6836 ee3d a554 783d
00000050: 39d8 b73d 1998 063e 4d9d dab9 1304 903c
00000060: da3e e23d 8a93 cc3d f3ae 3b3d f960 643d
00000070: 6f86 bb3d 91d3 2cbc 7ff7 333d 60dc 823d
00000080: 673f af3b 1027 fa3d 3c7f 60bc 5924 4f3d
00000090: e02b 753b bc4b 763d 2f5e 833d 904a b13d
000000a0: a763 9e3d 6c24 5c3d 973b a7bc c7ee 903d
000000b0: 51be fe3d e78d be3c 327b d53d 114c 433c
000000c0: 0e69 c13d c908 a43d ad79 25bd 30d3 9d3d
000000d0: f13b 233e c43b c63d 4360 233e 224a b23d
000000e0: a6b4 11bc a0c8 e33d 07e3 e23d 53d3 893d
000000f0: 2d41 833d 6749 753d a1c4 d2bc 62d5 b73d
00000100: decc fd3c e999 ebbc a0d5 b83c cfe1 0a3d
00000110: 8c38 193d 230c d4bc c369 a33d 5a1f 26bd
00000120: 1e73 08bd 66c3 123e a159 2a3d f5de 503d
00000130: d6d8 1e3d 2653 923d 32e2 9e3a d433 123d
00000140: e463 063e 1fa0 83bc 6675 9c3c 003c 0b3e
00000150: 75fc d73d e31f 2ebd ea4b a43b 824a 4f3d
00000160: e114 a73c 5d62 32bd 6d65 253c 0b86 ca3d
00000170: cba3 463d 941c c13c e2ec 6c3d a5d2 9d3d
00000180: 8a29 243c 0891 823d 1769 bebc 6d2a 54bd
00000190: f1d0 d23c 4df5 aabc 1983 0d3c 17f3 d73b
000001a0: 06eb d03d 087b 7e3d a562 523d 357f 8a3d
000001b0: 9284 293d 43c3 da3d 441b a23d e4d3 cf3c
000001c0: bc3e 063e 5c56 6a3d fe34 75bd 26fe 1a3d
000001d0: 3165 013d f604 ab3b b30d e1bc 44a2 ef3d
000001e0: aa9d e13d 0b70 e43d 29ae 5ebd 4efb cf3d
000001f0: 6c92 df3d e915 7e3d 2908 d03d 7e5b a83d

fc3.weight f4 [10, 128]
-0.113371335 0.10637763 0.11132884 -0.0734564 -0.04450384 0.091619164 0.013183204 -0.120977364
-0.055464283 0.059658475 0.100230195 -0.08105982 -0.117229104 0.11625176 -0.074202485 0.09944282
0.08705812 0.12646435 0.13330194 0.0015983782 -0.26313177 -0.031617153 -0.10610648 -0.0053817695
-0.18791589 0.08031334 0.09332437 0.17464517 -0.19939755 -0.088321544 -0.18123554 0.19627865
-0.24014267 0.025659777 -0.06228871 -0.25978497 0.06804383 0.0683082 -0.079190716 0.13794598
0.14983715 -0.04487179 -0.08470129 -0.12193912 -0.0546985 0.124838986 -0.12230627 -0.07908041
-0.07392262 -0.16627733 0.14443018 -0.24598078 0.06251353 -0.25159806 0.11251063 -0.13670966
0.099708885 -0.14337896 0.10290308 -0.032773618 0.14658357 -0.10345983 0.14446926 -0.14253378
-0.14917076 0.070834026 -0.1410345 -0.010916163 -0.17385834 0.15018632 -0.05322685 -0.1545123
-0.1402479 -0.22744955 -0.07606178 -0.024556153 -0.13447744 0.020306248 -0.22825146 0.12656711
-0.21081398 0.08061458 0.16014144 -0.027488153 -0.12338788 0.15909097 0.13024366 -0.17799023
0.009538143 -0.10760613 0.13949688 -0.0816219 0.12437387 -0.1392294 -0.13052948 -0.08427223
-0.052667893 -0.065968625 -0.029699704 0.008647903 -0.21162036 0.10576072 -0.09472612 -0.24217615
0.1020738 0.08018985 -0.15016392 0.08535908 -0.1734495 0.053844724 0.019148387 -0.08657256
-0.09891723 0.09208265 -0.15115353 -0.21062714 -0.23723425 0.08558519 -0.23341992 -0.18532759
0.10331141 0.09905234 -0.21658942 -0.14226365 -0.10954215 0.019207185 0.050383057 -0.19750452
0.11519614 -0.11298683 0.06836921 0.1167494 -0.16206928 -0.10851655 0.037853375 -0.16500314
-0.037430152 -0.1312758 -0.117972665 0.15503234 0.16013126 -0.20279433 -0.09356376 0.16620384
-0.13089819 -0.14432117 0.15976085 0.002411697 0.06034092 0.15672132 0.21897124 -0.086638644
0.13131015 -0.19250964 -0.23805481 -0.09277099 -0.1744516 0.11294806 -0.060112912 -0.12186707
-0.11560342 -0.14504531 -0.011966073 0.106381364 -0.053367443 0.06969108 0.1895952 -0.016135804
-0.23791322 -0.06323677 0.170797 -0.13678226 0.09804636 -0.2109673 -0.18960497 0.11126279
-0.24714588 0.110606305 -0.0992066 0.14043483 -0.20711689 0.12433027 -0.13183397 -0.10910295
-0.15398422 -0.24446465 -0.15212895 -0.17671366 -0.14907117 0.16963148 -0.17386556 0.08790228
-0.0807242 0.021194225 0.05852602 -0.1784795 -0.1825808 -0.21482305 -0.22994088 -0.15304998
0.10037539 -0.19006653 0.124971546 0.15189208 0.14856106 0.14056706 -0.038798597 -0.19731458
0.11077801 -0.21944943 -0.10522617 -0.01823446 -0.18927918 -0.17112766 -0.074201934 0.09855952
0.06822345 0.10475243 0.09210814 -0.154901 0.016460113 -0.075854756 -0.14498363 -0.22970068
0.081180975 0.07910829 -0.18556082 0.010130214 0.063342154 0.14330062 -0.010081772 0.116845615
-0.042813703 -0.23444638 0.10883707 0.097288236 0.121050216 -0.2295385 0.10928699 -0.123972036
-0.20291024 0.07066034 0.017212896 0.05124122 0.058553617 -0.0977417 0.099507414 -0.13585255
-0.11127083 -0.14661106 0.09812917 0.12730348 -0.19893272 -0.18425412 -0.07343742 0.10207999
00000000: 3b2f e8bd 84dc d93d 6000 e43d 4f70 96bd
00000010: a949 36bd d4a2 bb3d 5efe 573c fbc2 f7bd
00000020: 842e 63bd 725c 743d 7d45 cd3d b102 a6bd
00000030: d015 f0bd 6715 ee3d 79f7 97bd ada8 cb3d
00000040: 874b b23d df7f 013e 4e80 083e ac80 d13a
00000050: 35b9 86be fd80 01bd 5b4e d9bd 8e59 b0bb
00000060: 066d 40be 527b a43d d920 bf3d 2fd6 323e
00000070: df2e 4cbe ede1 b4bd cf95 39be 45fd 483e
00000080: f6e7 75be 7434 d23c 7222 7fbd 8902 85be
00000090: 905a 8b3d 2be5 8b3d be2e a2bd b641 0d3e
000000a0: e96e 193e 7bcb 37bd df77 adbd 38bb f9bd
000000b0: 890b 60bd 95ab ff3d b67b fabd e9f4 a1bd
000000c0: be64 97bd 9b44 2abe 81e5 133e 63e2 7bbe
000000d0: 1807 803d 76d1 80be f96b e63d 9efd 0bbe
000000e0: 2c34 cc3d efd1 12be dabe d23d a13d 06bd
000000f0: 011a 163e bfe2 d3bd c0ef 133e 60f4 11be
00000100: 38c0 18be 6e11 913d 596b 10be b5d9 32bc
00000110: ec07 32be 71ca 193e 6604 5abd 7938 1ebe
00000120: 259d 0fbe 89e8 68be 47c6 9bbd fc29 c9bc
00000130: 74b4 09be 4a59 a63c c0ba 69be cf9a 013e
00000140: 9fdf 57be 4219 a53d 1efc 233e d62e e1bc
00000150: c9b2 fcbd bee8 223e 985e 053e 1243 36be
00000160: df45 1c3c 9a60 dcbd 45d8 0e3e 6229 a7bd
00000170: bab7 fe3d 2792 0ebe 85a9 05be eb96 acbd
00000180: 4aba 57bd 8f1a 87bd cb4c f3bc efaf 0d3c
00000190: 02b3 58be 1499 d83d c5ff c1bd 06fd 77be
000001a0: 120c d13d 933a a43d 92c4 19be bed0 ae3d
000001b0: bf9c 31be 498c 5c3d 14dd 9c3c f44c b1bd
000001c0: 1e95 cabd d495 bc3d fec7 1abe a4ae 57be
000001d0: 89ed 72be 4a47 af3d a205 6fbe 84c6 3dbe
000001e0: ef94 d33d f4db ca3d 9ec9 5dbe 90ad 11be
000001f0: a257 e0bd 6358 9d3c 775e 4e3d a03e 4abe
00000200: f4eb eb3d a465 e7bd 2805 8c3d 4f1a ef3d
00000210: 7df5 25be ed3d debd 240c 1b3d 95f6 28be
00000220: 5c50 19bd 2a6d 06be a79b f1bd ccc0 1e3e
00000230: 73f9 233e 51a9 4fbe 5b9e bfbd 5731 2a3e
00000240: 2d0a 06be eec8 13be 5998 233e 900d 1e3b
00000250: 0a28 773d 8e7b 203e ff39 603e 9a6f b1bd
00000260: 2b76 063e 3f21 45be a4c4 73be b8fe bdbd
00000270: 71a3 32be 5051 e73d f538 76bd 7195 f9bd
00000280: 7cc1 ecbd c286 14be 590d 44bc 79de d93d
00000290: d297 5abd 32ba 8e3d 3e25 423e 3c2f 84bc
000002a0: 869f 73be 4882 81bd 69e5 2e3e a610 0cbe
000002b0: 88cc c83d d007 58be ce27 42be bfdd e33d
000002c0: cf13 7dbe 8f85 e23d d42c cbbd 26ce 0f3e
000002d0: 7316 54be dea0 fe3d 7cff 06be 5e71 dfbd
000002e0: 0aae 1dbe f154 7abe b1c7 1bbe 6df4 34be
000002f0: 1da6 18be e0b3 2d3e d009 32be 1c06 b43d
00000300: bb52 a5bd 839f ad3c fbb8 6f3d 54c3 36be
00000310: 76f6 3abe 93fa 5bbe 9f75 6bbe 22b9 1cbe
00000320: 9d91 cd3d cda0 42be 15f1 ff3d 9989 1b3e
00000330: 6420 183e d0f0 0f3e 47eb 1ebd d50c 4abe
00000340: 95df e23d 5ab7 60be d180 d7bd 6f60 95bc
00000350: 67d2 41be 173c 2fbe 2ff7 97bd 93d9 c93d
00000360: bcb8 8b3d 7188 d63d 31a3 bc3d 5e9e 1ebe
00000370: 5cd7 863c bd59 9bbd 9776 14be a836 6bbe
00000380: 3642 a63d 8703 a23d a803 3ebe 32f9 253c
00000390: 88b9 813d 66bd 123e 042e 25bc c14c ef3d
000003a0: 6c5d 2fbd b612 70be f8e5 de3d 0e3f c73d
000003b0: 2de9 f73d 240c 6bbe dbd1 df3d 0de5 fdbd
000003c0: b4c7 4fbe 5eb6 903d 0f02 8d3c 50e2 513d
000003d0: ebd5 6f3d cd2c c8bd 8bca cb3d ee1c 0bbe
000003e0: f6e1 e3bd 3621 16be f2f7 c83d d85b 023e
000003f0: 05b5 4bbe 1dad 3cbe 5c66 96bd 500f d13d

fc3.bias f4 [10]
0.0106233135 0.08915419 -0.12595832 -0.034736138 0.114660345 0.0060634925 -0.12282556 -0.12502334
0.07717529 0.072232835
00000000: 680d 2e3c 7996 b63d 38fb 00be 7b47 0ebd
00000010: 0bd3 ea3d 43b0 c63b f88b fbbd 1e06 00be
00000020: 140e 9e3d cfee 933d
